model/MSL_USAD.pth (torch_old, 599066 bytes, 18 tensors)

_Encoder__Encoder.0.weight f4 [137, 275]
00000000: 7011 4a3d 7430 573c 3509 0f3d ee2a 243d
00000010: d705 0c3d 9b1d 853d 6c22 c63a 2cf1 d1bc
00000020: 55f7 503d 58c4 a5bc 9df2 183d fa8d ad3d
00000030: 64cb dc3c 573a 8d3d 866a 4f3d fc15 82bd
00000040: b4e3 c13b 50bd 56bc f0bf a9bc bce2 a93d
00000050: 5b4a 693d 212c 723d cd71 5d3d 93d5 063c
00000060: d8df 7ebc d087 88bc baa7 88bc a4ca be3d
00000070: b5dd 583d 6876 d7bc 35cc 5ebd 1e21 873c
00000080: 67c6 653d fd0e c63d aba5 6e3d 2f92 683d
00000090: 5c95 7b3c 04fb 20bd 662e e5bc 3691 a13d
000000a0: 92a2 3fbd 02a3 af3d 60ca 74bb ae1a c1bb
000000b0: 1a35 b33c e8ed 1ebd b773 23bd 48a2 543d
000000c0: 7a46 43bd f938 d03d e02e 0a3b e091 26bb
000000d0: cc06 0bbc ea59 94bc f696 05bd 4046 ad3d
000000e0: 9444 14bd f3c4 5a3d 9e82 4f3b 27e6 493d
000000f0: 4244 a13d 4c72 a2bc c086 323d d5f0 0fbd
00000100: 2a0a 6ebc 7c65 433c b03c 383d aad1 003d
00000110: eeed 2dbc cf08 bd3c a6ca 9ebc 7d99 10bd
00000120: 2d41 873d d406 56bd 251a 843c 14c6 243c
00000130: a39b 543d 3f46 063d 7cc4 013d a3c1 403d
00000140: 009f bbba bcd7 0cbd 22a6 e23d 97dc feba
00000150: e080 3ebb f390 32bd 1715 08bd d4b2 413c
00000160: 6a28 483d d89b 43bc 0748 b73d 9e32 943c
00000170: 1c3e e2bc 671a 0c3d 865b b33d c8db 76bd
00000180: 4662 e3bb fec1 fd3c 78bd 9bbc fcbb 52bd
00000190: 65ed 893d da83 e43c b8b1 bf3d 0487 01bd
000001a0: 0e47 223d 463c bb3c 794a 443d 0f07 4d3d
000001b0: c2d6 2f3d cca4 8d3d 2982 8f3d f0df 6cbc
000001c0: 60a7 cd3c de62 32bc 1f72 6bbd 3a7e 043d
000001d0: 13d9 fe3c 04a4 0abd a223 3cbd 4f7d 423d
000001e0: f1d8 623d 131c 233d 7b6b d2bb b93b 0e3d
000001f0: 70f7 d43d 6c11 193a 6b39 0cbb c394 a93a
00000200: 9c34 01bd 7810 243d 14c0 633d b24e a6bc
00000210: 309f 753b 0a9a 6fbc ca4b 86bc d614 4cbd
00000220: e84f 69bd 8a70 b83d 4057 e43c f358 993d
00000230: 953a fdbc ba50 793c 4e5d c2bc 7907 cb3d
00000240: e463 08bc fd38 e13d 65d2 1cbd 06c2 d53c
00000250: 4fb2 f7bc 61ea c13d d9d2 3c3d 43c9 81bc
00000260: c499 623c e430 7a3c 9040 38bc 24f7 ec3a
00000270: d633 1abd 2ab1 aa3d aa0d 2f3c 6c84 7d3c
00000280: b705 62bd 05a9 13bd 52dc a43c 994e 7e3d
00000290: 9d4a 023d 2aa4 c93c 8ccb 72bd a6dd 063d
000002a0: aa3f 993d 9482 6fbd 1b47 e23d 6fea 3c3d
000002b0: ac51 0a3d fc93 d7bc f344 14bc 309b a3bb
000002c0: 32ab 7e3d 4426 a03d fbdd 983d 6de0 0c3d
000002d0: 8d2a bb3c cc6f 58bd 68e6 2f3d a065 8cba
000002e0: e619 6c3d 124c 01bb 64e5 44bd 00ae 86ba
000002f0: 75dc 80bc 935f 3bbd 7503 2c3d adf5 653d
00000300: 3ad4 b73d de1a 31bd cae3 083d 0e09 fb3c
00000310: 5442 fabc 0013 e5b9 e68a d13d e65c 37bd
00000320: aa94 723c 6e4d 993c 4ef3 57bd cc60 49bc
00000330: 9413 52bc 4862 b3bb 28f1 5c3c 3039 06bb
00000340: 2c8f dfbc 6973 0c3d 5489 413d 0ea3 d5bc
00000350: 1fc0 9c3d a667 e0bc ef61 a23d 40ba b23a
00000360: 92c1 833c 3811 8f3b 38a9 47bd 049c ce3c
00000370: 9ffd 523d d4ae 253c 401f 24bc a321 6a3d
00000380: bf8a 583d b857 de3b de2a 8e3d 5118 15bc
00000390: c567 47bd 82b3 1f3d 2e55 34bd ddbb 4d3d
000003a0: e569 813c a624 593d b4fe 51bb ece3 c33b
000003b0: 74dc 8a3c ef51 553d 182f b33b 87e4 f83c
000003c0: d6d9 29bd 6456 403c 5426 d0bc 6864 24bc
000003d0: 72b8 89bc dc3a 313c 3ec5 93bc 8afd 7f3d
000003e0: ea32 7e3d 0d5d 8e3d a831 75bd d13b be3c
000003f0: faa5 a3bc 9e93 193d 3744 febc 2cd0 05bc
0.049333036 0.013134111 0.03492089 0.040080003 0.034185257 0.064997874 0.001511646 -0.025627695
0.051017124 -0.020235226 0.03734075 0.084743455 0.026952453 0.06895893 0.050638698 -0.063518494
0.005917037 -0.013106659 -0.020721406 0.08295199 0.056955677 0.059124116 0.054063607 0.008229631
-0.015556298 -0.016666323 -0.01668154 0.093159944 0.05294581 -0.026301578 -0.054393966 0.016495284
0.056097414 0.096708275 0.058263462 0.056780037 0.015355434 -0.039301887 -0.027976226 0.07889025
-0.0467859 0.08576013 -0.003735207 -0.005893073 0.021875907 -0.038801104 -0.039905276 0.051912576
-0.047674634 0.10167117 0.0021085069 -0.0025416538 -0.008485507 -0.01810928 -0.03261467 0.08460665
-0.036198214 0.05341048 0.0031663547 0.049291756 0.07874347 -0.019829892 0.04358554 -0.035141785
-0.0145287905 0.011926051 0.04497975 0.03144995 -0.010615809 0.02307549 -0.01938374 -0.035302628
0.06604228 -0.052252606 0.016125748 0.010056991 0.05190624 0.032781836 0.031681523 0.047059666
-0.0014314353 -0.034385428 0.110668436 -0.0019444403 -0.0029068515 -0.043595266 -0.033223238 0.011822421
0.048866667 -0.0119390115 0.08949285 0.018090542 -0.027617507 0.034204867 0.08757691 -0.060268193
-0.0069392053 0.030976292 -0.019011244 -0.051448807 0.067347325 0.027894903 0.09360069 -0.0316229
0.039618544 0.022855889 0.047922585 0.05005556 0.04292942 0.06916198 0.07007248 -0.014457688
0.025104225 -0.01088783 -0.05748188 0.03234694 0.031109368 -0.033847824 -0.04593242 0.047482785
0.055382673 0.039821696 -0.006421504 0.034724925 0.103987575 0.0005839083 -0.0021396528 0.0012938011
-0.031544313 0.04005477 0.0556031 -0.020301197 0.0037478916 -0.014624128 -0.01639356 -0.04982456
-0.05696097 0.0900584 0.027873635 0.07487669 -0.030911723 0.015217001 -0.023726132 0.09913535
-0.008324597 0.10997198 -0.038286585 0.026093494 -0.030236391 0.09468532 0.046099517 -0.01584304
0.013830606 0.0152704455 -0.011245862 0.0018079025 -0.03764709 0.083345726 0.01068441 0.015473466
-0.05518123 -0.03604986 0.020124588 0.062086675 0.031809438 0.024614412 -0.05927615 0.032926224
0.07482846 -0.05847414 0.110487185 0.04612201 0.033769295 -0.026315682 -0.009049642 -0.004992865
0.062174983 0.078197986 0.074642144 0.034393717 0.022847438 -0.052840993 0.042944342 -0.0010711439
0.057641886 -0.001972918 -0.048070326 -0.0010275245 -0.015730122 -0.045745444 0.041995484 0.056142498
0.08976026 -0.043238513 0.03342036 0.030643966 -0.030549206 -0.0004369244 0.10231571 -0.04476633
0.014805952 0.01871368 -0.052722268 -0.012291145 -0.012822051 -0.0054743625 0.0134852305 -0.0020480864
-0.02728995 0.03428975 0.047250107 -0.026078727 0.07653832 -0.027393173 0.079288356 0.0013635829
0.016083512 0.0043660663 -0.048745364 0.025220878 0.051511403 0.010112483 -0.010017216 0.057160985
0.052866694 0.0067853592 0.0694177 -0.009100036 -0.048682947 0.03898955 -0.044026546 0.05022799
0.015797565 0.053013466 -0.0032042684 0.005978098 0.016950823 0.05208009 0.0054682605 0.030382408
-0.04146751 0.011739347 -0.025408901 -0.010033704 -0.016811583 0.010817256 -0.018038388 0.062497653
0.062060274 0.06951342 -0.05986181 0.023221882 -0.019976605 0.037494294 -0.031038387 -0.008167308

_Encoder__Encoder.0.bias f4 [137]
00000000: e1dd 023e a61b 373d 032f 1e3d 2a33 ac3d
00000010: 48fa 7c3d 8e34 993d 5099 993d a8ec 273d
00000020: e68c ff3c b53e 903d bf50 db3c 2bdf 043e
00000030: d314 103d ac6d b33d b8d3 e83c a1d8 a13d
00000040: 90ac 013e 498b b63d 651e 933d b09b 9e3d
00000050: 8e0a 093c 588b bb3d d84c b23d e67f 0c3e
00000060: aac1 adbc 8db3 283d b11e 113e 060b c03d
00000070: c747 813d f1fb 023f 708d d3bd 63f3 893d
00000080: 72b8 9f3e 3959 a93d f83b bd3d c5c4 3c3d
00000090: 102b 063e 5096 f63c 8fbb 133d 39f6 fe3d
000000a0: 9a42 d43d 74ac db3d 3d58 023e 5d94 b63d
000000b0: 2e9e 9b3d e1cc 063e 9db4 943d 68f7 143d
000000c0: f726 fb3c 885f 6f3d 8c00 f93d 7bea 1b3d
000000d0: 09a2 0a3e 46c1 61bd 278a 71bd e824 bb3d
000000e0: 33e0 7bbd c60a 173d cafa 7e3d 3fcc a83d
000000f0: b9c9 8f3d 04e7 893d b442 513d a3bb 163d
00000100: 64aa f93d 493a b03b 4646 5f3d 80e3 e93d
00000110: e32c d53d b273 8b3d c899 0c3d 2bc8 f23c
00000120: b244 ec3c dd4f bc3c 4050 ad3d 5614 9e3c
00000130: 71ab f53d 0af3 ed3c b3b4 353f 38ec 6dbd
00000140: dded 503d de13 e43d 9988 163e 8f13 433d
00000150: dfd5 583f 7cbe c73d 4cdf a43d 479a c73c
00000160: 02df 943d 0f80 573d d4af ff3d dfa4 ac3c
00000170: 6035 ac3d eea0 b73d 0418 dd3c f00d 8c3d
00000180: 840d b53d 37f4 063e e4c2 ee3c 960a bc3d
00000190: fc11 e23d 5c1c 013f 76df 9d3d 30dc 9c3d
000001a0: 4430 953d f08d b23d 6cf1 f13d bd63 c03d
000001b0: 0c51 6a3d 57fa 213d a869 d23c 0593 4f3d
000001c0: 5518 a83d e7e3 343d bc63 183f d13b 1c3d
000001d0: f826 e03d 2e20 9b3d 1083 cc3c 031b 533d
000001e0: b85f 403d 3188 d03d d198 8c3d 21f0 2b3d
000001f0: af75 0b3e 790f ec3d a2e6 fb3d b87d 103e
00000200: aca6 d5bb 6a49 973e 029a 793d cfc3 813d
00000210: dfaa f23d 0ab2 d93d a8df 073d 1ffd 813d
00000220: 3865 793d
0.12779953 0.044704102 0.038619053 0.08408196 0.061762124 0.07480727 0.07499945 0.040997177
0.031195115 0.070432104 0.026771901 0.12975757 0.03517611 0.087611526 0.028421268 0.07902647
0.12663484 0.08913285 0.07183532 0.07744539 0.008364333 0.09157437 0.08706063 0.13720664
-0.02121051 0.041186858 0.14171864 0.093771026 0.063125186 0.5116568 -0.103297114 0.067358755
0.31195408 0.08268971 0.09239954 0.04608609 0.13102365 0.030100971 0.03606754 0.12449307
0.10364266 0.10726252 0.12728973 0.08915017 0.0759853 0.13164093 0.07261012 0.036368757
0.030658228 0.058440715 0.121583074 0.038065415 0.13538374 -0.05511596 -0.058969643 0.09137899
-0.06149311 0.03687551 0.06225089 0.08242082 0.070208974 0.06733516 0.051089004 0.036800038
0.121907026 0.005378042 0.054510377 0.11420345 0.10408952 0.068091765 0.034326345 0.029636463
0.02884135 0.0229873 0.08462572 0.019296806 0.119955905 0.029046554 0.7097885 -0.058086604
0.051008094 0.11136602 0.14700545 0.047626074 0.8470134 0.09753129 0.08050403 0.024365557
0.07269098 0.05261236 0.124847084 0.02107471 0.08408618 0.08966242 0.02698899 0.06838596
0.088404685 0.13179098 0.029145665 0.091817066 0.110385865 0.504339 0.077086374 0.07659185
0.072845966 0.08718479 0.11813626 0.093940236 0.0572062 0.039545383 0.025685146 0.050677318
0.08207766 0.044162657 0.5952718 0.038142983 0.10944933 0.07574497 0.02496484 0.051539432
0.046966285 0.101822264 0.06865085 0.04197705 0.13619111 0.11526389 0.12299849 0.14110458
-0.006520113 0.29548198 0.06093789 0.06336176 0.11848997 0.106296614 0.03317228 0.06347107
0.060887545

_Encoder__Encoder.2.weight f4 [68, 137]
00000000: 0a64 563d 5cfe a6bd 188a 81bd f763 43bd
00000010: a78c 34bd 3e8b 433d ca4a b8bc 5dd7 56bc
00000020: ce2a 7e3d 944a d0bc 2fed 253a b78f c7bd
00000030: 9818 0d3d 4087 503d 5179 23bd 3ac5 033d
00000040: 6542 84bd 0ed0 41bb 96fc 093d 531e 4dbd
00000050: 4ca9 02bd 337a 0bbd 50bf 7b3d aaa3 b13c
00000060: 2805 1c3d 4159 0bbd c844 ccbd 3ec3 90bd
00000070: 0178 3abc d2a6 713d 259e 8fbd 6e90 773d
00000080: dcdf 83bd 4a44 8dbd 0e48 00bd f203 63bb
00000090: b33d 82bd b2f5 633d aa41 9f3d 648a 603d
000000a0: 7b7f b2bd b1db fc3c ac08 173d 5642 403d
000000b0: 6e17 aabd 7ee8 053d 946d 39bd dccf f6ba
000000c0: 66a8 07bd 93d4 ccba 19b8 60bd be2d c2bc
000000d0: 0488 43bd 08c9 8a3d 9ab5 5b3d d83d 4d3d
000000e0: d217 903d 645a 6e3d cc9d 2fbc 3310 bcbd
000000f0: 1a07 9bbd b016 86bd 4eca dd3c 9741 25bd
00000100: 0217 763d 3514 21bd 4ec0 8f3d 367c 7e3d
00000110: f4cc 9bbd a06c 3e3d 22a8 2d3d 80df 00bc
00000120: 6a1d 943d eaa2 df3c caf7 9dbd df3c 1abd
00000130: af9a e73c 9a46 2abd 1a47 bdba 7514 88bc
00000140: 265b 0b3d 488d ddbc 8aa5 89bd ee99 c3bc
00000150: 2a43 503d 9c44 9a3c a77a 2abd 6a3e 48bd
00000160: 6a20 d6bc 79b9 bbbb dc5b a2bc 9036 253d
00000170: f027 b6bd de8e 8cbd 7dd2 07bd 0b14 aebd
00000180: 96aa c4bd d1e5 13bd 96b4 e5bb d8e0 423c
00000190: 69e6 f63c eacb 13bc 388f f23c c81f e3bc
000001a0: a57c 743d 4b93 bcbd 0cee 1d3d b644 fbbc
000001b0: b48b a63c 8cab 6c3d 9a0c 553c bc0a 9bbd
000001c0: 5da1 15bc b828 f8bc 9607 a9bd ff44 1bbd
000001d0: a040 da3b ccdf 0f3a 4739 f93c 1e47 a9bd
000001e0: 808e 77bd d2eb d6bc 07c7 00bd 3acf a9bd
000001f0: cd7c b2bd 72ea 273d 08c6 ef3c 516c b1bc
00000200: 3edd 13bd 1a6f 8f3c 4817 4b3d bb77 68bc
00000210: 6867 21bc 48d2 ba3c fcc2 9dbd fae5 97bd
00000220: 4cbd 593d 0387 043e aa42 bf3d dd7d d73d
00000230: 5f2c 163e aa8a ac3d ab1d f73d 1130 143e
00000240: ccae dd3d 1b21 38bc c437 0f3e c268 593d
00000250: 2316 8f3d d05f 993d e7cc 253e 9b46 1ebd
00000260: 5d55 ad3d 8ef8 063e 6d42 0d3e e39a 163d
00000270: 928d 143e e2c7 983d 26c2 963d 1e6a 7a3c
00000280: 6c35 123e d49a 843d 52d0 0b3e 9d8e 103e
00000290: f676 053e 7423 d23c 9d7d 35bf b782 983d
000002a0: d4bf 163e 7144 a8bd ca04 de3d 9819 db3d
000002b0: c23f d43d 25f1 873d e54b adbc d788 e93d
000002c0: ae16 103e e557 2d3d ce78 763d 51fb a23d
000002d0: 8e22 943c 57cf 553c 0269 c93d 151b e73d
000002e0: 4afa de3d 72dd ff3d f58a 053e 2abe 013e
000002f0: 6a07 d83d 4d16 873d 143f 563b 0ddb 9a3d
00000300: caf7 df3d 506d 573d 23b5 85bc 4d88 373d
00000310: b4b8 f83d 2aa6 9e3d 8832 493d 7612 e33d
00000320: 432e 923d 6810 d23d 550e 87bc 01de 153e
00000330: 5b48 a73d ab1f 883d 86f7 0e3e bc4b f23d
00000340: fbe2 8abc 033b 813d 6886 883d c4c1 283d
00000350: 1665 853c 41cc ae3d e472 f2bc 14d6 aabe
00000360: 2093 4dbc beba e93d 3232 9f3c 915d 52ba
00000370: b226 ba3d 0ef5 9e3d aec9 b13d ccef f93c
00000380: 11aa a33d 2ad4 d3bb 28ce 103e c9bc 2a3d
00000390: d41a 8c3d 20e4 c13c 6dd2 c43d 7508 9fbb
000003a0: 6277 6f3d 04cd ac3d 90f6 833d aabd c73d
000003b0: ca97 fd3d 24d4 1a3e e8df cc3d f437 763c
000003c0: 9398 e93d 2cda ce3c 29f7 ff3c 39a0 813d
000003d0: b691 203e 0491 583d 9f7f 02bd d0a4 863c
000003e0: 0a3e e53d cc6e 023e 27b5 ab3d 401d 873d
000003f0: 7d6f e93d 3625 923d d44c ef3d db8d ce3b
0.0523415 -0.08153984 -0.063251674 -0.047702756 -0.04407945 0.047740214 -0.0224966 -0.01311287
0.06205254 -0.025426187 0.00063295936 -0.09744208 0.034447283 0.050910234 -0.03991062 0.03217051
-0.06457976 -0.0029573473 0.03368815 -0.050077748 -0.031899735 -0.034052085 0.061461747 0.021684486
0.038090855 -0.034020666 -0.099740565 -0.070684895 -0.01138115 0.058996983 -0.070125856 0.060440473
-0.06439182 -0.06897791 -0.031318717 -0.0034639803 -0.063594244 0.055654235 0.07776196 0.05481948
-0.08715721 0.030866476 0.036873505 0.046938263 -0.0830525 0.032692425 -0.045270517 -0.0018830257
-0.03311958 -0.0015627317 -0.05486307 -0.023703452 -0.047737136 0.06776625 0.053639986 0.050107807
0.07035793 0.058191672 -0.010718774 -0.09182777 -0.07569714 -0.06547296 0.027074005 -0.040345754
0.060080536 -0.03932591 0.07019101 0.062130176 -0.07607451 0.04649031 0.042396672 -0.007865787
0.07232173 0.027299363 -0.07713278 -0.037655707 0.028272001 -0.041571237 -0.0014440746 -0.016611317
0.034022473 -0.027044907 -0.06721027 -0.02387711 0.050845303 0.018831544 -0.041620877 -0.048887648
-0.026138503 -0.005728897 -0.019819193 0.040335238 -0.08894336 -0.06863187 -0.03315972 -0.08499917
-0.09602849 -0.036107842 -0.007010053 0.011894427 0.030139165 -0.009020785 0.029609308 -0.027725115
0.059689183 -0.092077814 0.038557097 -0.030672412 0.020330288 0.057780787 0.013003493 -0.07570407
-0.00913271 -0.030292854 -0.082534 -0.037907597 0.006660536 0.00054883654 0.03042282 -0.08265518
-0.060438633 -0.026235495 -0.031439807 -0.082914785 -0.0871521 0.04099507 0.029269233 -0.021658095
-0.036099665 0.017509032 0.04958275 -0.014188702 -0.009851314 0.022805348 -0.07703206 -0.074169114
0.053159043 0.12942128 0.09338887 0.105220534 0.14665364 0.084248856 0.120662056 0.14471461
0.108243555 -0.011238362 0.13986117 0.05307842 0.06986644 0.07488978 0.16191445 -0.038641553
0.084635474 0.13180754 0.1379487 0.036768805 0.1450713 0.074599996 0.073612496 0.015284089
0.14278191 0.064748436 0.13653687 0.14116903 0.13033661 0.025651671 -0.70894796 0.07446807
0.14721614 -0.08216179 0.10840757 0.10698241 0.10363723 0.066377915 -0.021154353 0.11403053
0.14071152 0.04232015 0.060173802 0.07958091 0.018082883 0.013049922 0.09834482 0.11284462
0.108875826 0.12493409 0.13041289 0.12670198 0.10548289 0.065960504 0.0032691406 0.07561312
0.10935934 0.052594483 -0.016321724 0.04480772 0.12144604 0.07746537 0.049120456 0.110875055
0.0713773 0.102570355 -0.016486326 0.14635469 0.081680976 0.06646665 0.1396161 0.118308514
-0.016953936 0.06310084 0.06666261 0.041200414 0.016283553 0.08535052 -0.0295958 -0.33366454
-0.012547284 0.11412571 0.019433115 -0.0008024807 0.09089412 0.07761584 0.086810455 0.030509852
0.07991422 -0.006464501 0.14141142 0.041683946 0.068410546 0.023668349 0.09610448 -0.004853303
0.05846346 0.08437541 0.064435124 0.097529724 0.12382467 0.15119988 0.10003644 0.015027989
0.11406054 0.025250517 0.031245785 0.06329388 0.15680584 0.052872673 -0.03185999 0.01643601
0.11193474 0.12737578 0.083841614 0.06597376 0.11398218 0.07136004 0.11684576 0.0063035316

_Encoder__Encoder.2.bias f4 [68]
00000000: 341b f0bc e705 373d d375 0f3e 9afc d8bb
00000010: c73d c1bc 9d7c 183e ba59 a6bd c539 d13d
00000020: 8426 b6bd 5778 5dbc e1dc d43c 806b acbc
00000030: e8a7 ec3d fbd3 943d 18df cb3d 5ad4 a9bd
00000040: cc5d 6e3d df4b 8e3d 621c e23d e055 1ebd
00000050: ebb3 9d3d 0419 0b3e 1935 993d 9cec 4fbc
00000060: 6084 16bc 3507 af3d 6af1 033d f401 123e
00000070: ee5a 053c a462 5b3d 1038 183e 0bc9 103d
00000080: ce6b 0bbd dd48 dc3d c5c3 043e 0c30 553c
00000090: 49a8 253e da1f 0c3d 32d2 2cbb e8fe 193e
000000a0: 4829 c63d d490 45bd e026 883c 55ca 0c3e
000000b0: b8a6 f73d e54e 8bba c421 18bc aec8 0ebd
000000c0: ddcc 02bc 207a d63c 44b9 183d 9b0b c3bd
000000d0: 3131 c73c 7b9e cbbd a7bd 3e3d 1ef8 e53c
000000e0: cf3f 77bb b935 e03d e38d bcbd 0cce 053d
000000f0: c0bd 2d3e 68b0 81bd ea7e 633d f514 f23c
00000100: bbd9 a83d 3f93 b23c b168 82bc 1219 243c
-0.029309846 0.044683363 0.1400979 -0.0066219093 -0.023589028 0.14891286 -0.08122583 0.10216097
-0.08894065 -0.013517461 0.02598423 -0.021047354 0.11555463 0.072669946 0.09954661 -0.08292456
0.05819492 0.06948065 0.1104057 -0.038656116 0.07700332 0.13583761 0.07480831 -0.012690689
-0.009186834 0.085462965 0.032212652 0.14258558 0.008139355 0.053560868 0.14865136 0.03534798
-0.034038357 0.10756085 0.12965305 0.013011944 0.16177477 0.034210064 -0.0026370403 0.15038645
0.096758425 -0.048233822 0.0166201 0.13749059 0.12092346 -0.0010628371 -0.009285394 -0.03485935
-0.0079834135 0.02618128 0.037286058 -0.09523698 0.024315448 -0.09942337 0.046567585 0.028072413
-0.0037727242 0.10947747 -0.0920675 0.032667205 0.16966915 -0.06332475 0.055540957 0.029551009
0.08244654 0.021798728 -0.015919061 0.010015743

_Encoder__Encoder.4.weight f4 [33, 68]
00000000: c414 f43d b158 323e 743f 1d3d f54a b83c
00000010: 95cb b0bd 5a9c 343e f57b c4bd ae70 e93c
00000020: 667d 73bd 52ce 18bc cdd5 b03c d490 473d
00000030: deaf 5f3b 499c 023e 8439 413e 969d a53d
00000040: 78ca 0e3e 764b fc3d ed85 00bd aa65 f53d
00000050: 9e1d bb3b 1888 e53c ea8e 3d3e 4e63 95bd
00000060: 0307 493c 29da 0f3e 72ea 723d 798a 953d
00000070: 9b3d 043e 7015 60bb c28e 4c3e 1ea5 9dbc
00000080: 2f9d 0d3e fee6 3b3e 39cc 033e 7285 ed3d
00000090: b5d3 1f3e 0ec1 aebc b0c8 9c3d a0ca 1a3d
000000a0: f2cb e73a 221c d03d 1c98 bfbd 44be be3d
000000b0: f6f9 353e 061a cdbc f874 7cbd 5a1f 82bd
000000c0: 8afb eb3c 4844 1ebd fc41 d83c 4654 c93d
000000d0: ee71 053e 2d01 973c 85b6 393e d240 e93d
000000e0: 893d 9cbd e76a 213e 1c14 8bbc 4a64 d73d
000000f0: 283a fa3d 04f9 9a3d adad bb3d 565a 5d3d
00000100: 01cc 213e 5c6e 74bd b879 cc3d e61f 1c3e
00000110: 6e1c 0ebd 4ec1 28bd de20 483e 60aa 813d
00000120: 2497 963d 06b6 493e 0a21 583d 1444 ed3d
00000130: c07a 943d 46fb 263d 6c75 083e 2442 dcbc
00000140: 181e c43c d44e 593a e679 223e 429f b33d
00000150: fe3d d33d ac88 02bd 40a2 3b3e 4449 d33d
00000160: e8ea a1bc d5f9 4a3d de11 ee3d be73 fc3b
00000170: 105c 47bd 5c6c 193c d60f b2bd c6c1 f53d
00000180: b202 d63d 22b3 f9bc 8a54 863d fc86 91bd
00000190: fcef 04bd afea 813d ba1b 18bd 983c 18bc
000001a0: c297 913d c025 093d b29c 2f3e 1ec1 f63c
000001b0: b5f7 e33d fe1d 513b c6fe cdbc 1046 0b3d
000001c0: b6bc a0bb 1412 e43c ad41 323e 306d ebbd
000001d0: 664e 773b 319d 083e 06fa 79bd b69b ad3d
000001e0: 044f 603d c607 40bc 0d6a 1c3e d0b3 693d
000001f0: c418 bd3d 1883 113d 3608 cabd 2cda 303e
00000200: 96d6 9c3c dc40 3cbd 0ddc 3a3e b2af 5c3c
00000210: 1574 f83d 1999 4e3d ecf3 bcba 56a9 f23d
00000220: a42e aa3d aedb b93d d2d6 62bd 4071 69bb
00000230: a82e d8bc 2009 253d 1ce3 ae3d a8dc b93c
00000240: 443e c5bd 6095 e03c 0751 ccbd c439 ddbc
00000250: 9e10 2ebd 2c15 8c3d 200f 383c 1459 febc
00000260: 1076 4e3d f0d8 da3c 02be d93d 24a9 cfbc
00000270: 50b7 29bd 64d2 8f3d da76 38bd 6642 d9bd
00000280: 0064 d33d a2c0 acbd 3431 213d 8291 91bd
00000290: ff03 91bd 760f 953d a80a e6bd 585c c1bc
000002a0: fc0b 44bd 020b bd3d 46fd 0bbd 3a90 dcbd
000002b0: 58f5 93bd 7c9b 93bd 80d7 e7bc c478 c2bc
000002c0: 204a c53b 06a7 d8bd 9c80 b93d a809 33bd
000002d0: 2a23 f0bd 9e60 43bd 3afc b9bd 3853 51bc
000002e0: 40d1 d1bb e0b7 6d3b 581d 863c 36e4 a0bd
000002f0: bba8 c3bd 9cb4 3c3d 00e8 e2bd ec97 d53d
00000300: 36c3 21bd a681 823d 74b0 233d 0396 a9bd
00000310: eea0 bbbd d0cf 383d 5cf5 5fbd 750b d0bd
00000320: 5467 eebd 8a44 13bd e6bc d13d df08 f8bd
00000330: 4c76 7a3d a0dd 82bd 8894 5c3d 90a0 60bd
00000340: 3202 dd3d 2065 333d 4005 2cbb 2074 f23b
00000350: 40e4 1c3d 56a7 b8bd 0acb e03d 1c35 ad3d
00000360: 4a01 22bd c323 cfbd bcd8 afbc 72ca 03bd
00000370: 0c50 0c3d a8a2 0dbc d23c dbbd 8393 d0bd
00000380: c3de e8bd a0fd 4cbb 08bd d03c 200a d83d
00000390: 7472 753d 20a2 583c 38e2 7f3d ec49 a5bd
000003a0: 8000 7a3c 2290 acbd a572 95bd 4a85 b1bd
000003b0: 055c d4bd 6a31 a1bd 5b10 71bd 7013 313d
000003c0: 9435 18bd c26f 30bd 4448 973d 8e75 d2bd
000003d0: bee0 21bd 8d0b a8bd c8fb 1dbd 06cf 9c3d
000003e0: b850 c43c e892 e73c b07e ea3c dc6f 2f3d
000003f0: 7047 673d b4a1 3cbd 94cb 8ebc 2eff 0dbd
0.11918023 0.17416646 0.03839059 0.02249668 -0.0863258 0.17637768 -0.095939554 0.028496113
-0.05944576 -0.009326534 0.021586323 0.048722103 0.0034131925 0.1275493 0.18869597 0.08086698
0.13944423 0.123190805 -0.03137772 0.119822815 0.0057103178 0.028018996 0.18511549 -0.072943315
0.012269738 0.14048065 0.059305616 0.07301802 0.12914126 -0.0034192465 0.19976333 -0.019243773
0.13829492 0.18349835 0.12870874 0.11597718 0.15608104 -0.02133229 0.076554656 0.037790895
0.0017684682 0.10161616 -0.093551844 0.09313634 0.17771134 -0.025036823 -0.061634988 -0.06353636
0.028806467 -0.038639337 0.026398651 0.09830527 0.13031742 0.018433178 0.18136032 0.113893166
-0.076289244 0.15763436 -0.016977362 0.105171755 0.12218124 0.07567027 0.091639854 0.05404123
0.15800478 -0.05967556 0.099841535 0.15246543 -0.03469508 -0.041199975 0.19543788 0.063313246
0.073530465 0.19698343 0.052765884 0.115852505 0.07249975 0.040766977 0.13326043 -0.026887007
0.023940131 0.00082896394 0.15866813 0.087706104 0.103145584 -0.03186862 0.18323612 0.10316709
-0.019765332 0.049554665 0.11624502 0.007704227 -0.048671782 0.009364214 -0.08694427 0.1199985
0.10449733 -0.030480925 0.06559093 -0.07105824 -0.03245543 0.063435905 -0.037135817 -0.00929179
0.07109024 0.033483267 0.17149618 0.030121382 0.11131231 0.0031908746 -0.0251459 0.034002364
-0.0049053086 0.027840652 0.17407866 -0.11495435 0.0037735938 0.13341214 -0.061029457 0.08476965
0.054762855 -0.011720603 0.1527483 0.05705625 0.09233239 0.03552541 -0.09864847 0.17270726
0.019145291 -0.045960292 0.18248005 0.013469623 0.12131516 0.050438974 -0.0014415956 0.118487045
0.08309677 0.09075104 -0.05538065 -0.003562048 -0.026389435 0.040291905 0.085394114 0.022688225
-0.09631017 0.027414978 -0.09976392 -0.027005084 -0.042496316 0.06839976 0.011234075 -0.031048335
0.050405562 0.026714772 0.10631944 -0.025349207 -0.041434586 0.07022551 -0.04503522 -0.106083676
0.10321808 -0.08435179 0.039353564 -0.071078315 -0.0708084 0.072783396 -0.11232501 -0.023603603
-0.04786299 0.09230615 -0.034177087 -0.107696965 -0.0722453 -0.07207391 -0.028301 -0.023739226
0.0060207993 -0.10578732 0.090577334 -0.04371038 -0.11725457 -0.047699563 -0.090813115 -0.012776189
-0.0064031184 0.0036272928 0.016371414 -0.07856028 -0.09553667 0.04607068 -0.11079407 0.104293674
-0.03949281 0.06372385 0.0399632 -0.082805656 -0.09161554 0.04512006 -0.054677352 -0.10158435
-0.11640802 -0.035954036 0.10241108 -0.12111067 0.061147973 -0.06389928 0.053852588 -0.054840624
0.10791434 0.043797612 -0.0026248246 0.007399097 0.038303614 -0.09016292 0.10976227 0.084573954
-0.03955201 -0.10114243 -0.021465652 -0.03217549 0.034256026 -0.008644737 -0.1070496 -0.10184386
-0.113706134 -0.0031279102 0.025480762 0.10548806 0.059923604 0.013222247 0.0624716 -0.0807074
0.015258908 -0.08425929 -0.07297257 -0.08668001 -0.10369114 -0.07870753 -0.05885349 0.043231428
-0.03716047 -0.04307533 0.073868304 -0.10276328 -0.03952097 -0.08205328 -0.038570195 0.07656674
0.023964271 0.028268293 0.028624862 0.042831287 0.056464612 -0.04605265 -0.017431058 -0.034667186

_Encoder__Encoder.4.bias f4 [33]
00000000: 71a3 503e db44 f33d 6464 9abd e695 91bd
00000010: 6635 d83c 4c81 103c 3840 9a3d 8cba 2dbd
00000020: 3318 033e db86 d0bd 9166 1e3e 1a18 58bd
00000030: e0f4 4bbd 7a52 763d 2184 143e b82b 6e3c
00000040: f813 39bd bf8a de3c d146 88bd a832 483e
00000050: d8ba 483d c58d 003e b212 003e fc83 323e
00000060: 93b4 a73d 5a1a b43d a899 6a3d b3da 2e3e
00000070: 3811 adbc 1063 f6bc 16c9 b93d 3830 553c
00000080: 49ab 09bd
0.20374848 0.118783675 -0.07538679 -0.07108669 0.02639265 0.008819889 0.0753178 -0.042414233
0.128022 -0.10181972 0.15468813 -0.05275736 -0.049794078 0.06013725 0.14503528 0.014536791
-0.04518506 0.027165769 -0.06654132 0.19550574 0.049006313 0.12554081 0.12507132 0.1743316
0.08188739 0.08794089 0.057275444 0.17075615 -0.021126375 -0.030076534 0.09071557 0.0130119845
-0.033610616

_Decoder__Decoder.0.weight f4 [68, 33]
00000000: 9873 3e3e 819d c23d a411 b13d dc2b 0ebd
00000010: 157e 4cbd df79 34bc d60e f3bd 6928 01be
00000020: b183 4abc bc39 2b3e 9b52 03bd d0b3 a9bc
00000030: 7bca 8ebd 3840 283e 5975 2f3c bdf8 a53d
00000040: 204b fc3c 62b8 8fbc 684d b9bc 034d 913c
00000050: dafe a3bd b6be 22bd f62b 533d 18f9 1f3e
00000060: b595 6c3d d676 ad3d 7f28 d03d 9cd1 a7bb
00000070: 7166 a83d 2458 943d 17e2 113d 48ca 03bc
00000080: dd13 3a3e f9c9 c23d f451 abbd 1050 1cbd
00000090: c82e cbbc 62e1 1a3e dd60 26be fc49 003d
000000a0: e460 c1bd d9fe 11bd e823 d43d a335 883d
000000b0: 6053 c0bd 280b 1f3e ba52 14be 4f42 ddbd
000000c0: ec0c 203d d467 06be e623 1f3e 921d a9bd
000000d0: 6d5f eb3d b0c0 263d 25a7 283d 1d07 af3d
000000e0: 2215 b3bd a82e ef3d b2ec 813d 7d5c 1ebe
000000f0: d5a2 18be 733a 843d 748c a93d e1a8 243d
00000100: 8228 1b3e 9d99 b0bb d9be 8dbd 86ab b43d
00000110: 2bf7 2fbe 686d 293d f67c 873d 60dd 38bd
00000120: 0337 d5bc 10e4 043e 133b 7a3d 6049 913b
00000130: 810e 233e 3065 d43c 8800 d13d b445 c5bd
00000140: ca82 78bc ca38 913d 9f04 0b3d 2bfe 0bbe
00000150: 7ed4 073d 08c4 db3d 9be9 16be 002e 6cbd
00000160: 7030 38be 5da4 8d3d 0844 29bd 6e80 853d
00000170: 20eb 1bbe abd2 95bd d160 243e 575d b5bd
00000180: b156 b9bd 47d9 3e3b cf0c 1a3c 50f7 453d
00000190: 2016 05be 824e febd a862 1bbd 78dd eabc
000001a0: e0b4 21bc 0939 fbbd 00df 2cba 7804 a73d
000001b0: 067f cebd 14d3 2b3d 8dc8 03be d8a5 883d
000001c0: d8cc a43d 5250 57bd 2c96 1cbd 60da 87bc
000001d0: e45e d8bd 8a54 02be 8f4f a4bd 2473 00bd
000001e0: 10c9 1c3e cbc8 82bd 139e 28be 3049 f5bd
000001f0: ffd9 10be 4041 64bc 4224 213e f436 573d
00000200: 302c e93d 808c fb3d 0c85 213e a619 103e
00000210: e11e 2ebe fca7 033e 7610 76bd 6969 22be
00000220: b003 8cbd 684a d63d 0459 7abd f0b0 9ebc
00000230: 2780 16bd 8895 96bc a9e4 253e 58ff 89bd
00000240: e4f5 d3bd 60e4 fa3c 0274 433d e038 0cbc
00000250: 9c5a 18be 08ce 8b3c 6d1e 183e 7ab1 693c
00000260: 82ac 073e 3329 0e3e e9e2 e23d bcee 513d
00000270: 60ad 21be 6ca3 22be 4058 673c b7a5 f7bd
00000280: aa17 643c 16de 063e 0ecd cd3b 4f21 c5bd
00000290: e318 2c3d 9f01 263d 66b1 313e 949e 0c3d
000002a0: 087e aa3d 98b8 9d3d 7849 91bd 6ca2 363e
000002b0: bc3f adbd ecfc 4e3e 9742 2ebe 9f2b ae3d
000002c0: f501 15be c02e 56bb d6f7 43bd 1160 b7bd
000002d0: d60c fcbd ce2b ffbd e667 e6bd 31f2 cc3c
000002e0: 5e4f 183e de92 21be 1490 ebbc f2ee 3a3e
000002f0: d08f a7bb 8c69 4b3d fa0b 5a3e 5546 02be
00000300: 03be f83c 1844 06be 0fd3 d2bd fc70 c03d
00000310: 08f0 18be 3d75 2c3e f70b 273e 52b3 f23d
00000320: 389c 2c3e a0e6 21bd f0ea 6cbc c804 ccbd
00000330: e255 3ebd 2e00 b63b a26d c53c 9c3f bc3d
00000340: df94 e6bd 2c1d cd3d ca83 02be da2c 9cbd
00000350: de09 963d 3016 943d 96fb 153e 1e50 93bd
00000360: 0ac7 23be f118 be3d 2a0a 053e 55ab 793d
00000370: d1b0 bd3d a0d2 aa3d 46f7 ca3d e193 0f3e
00000380: a3d9 c2bd 7a1c 02be 7fd8 ccbb 1693 1a3e
00000390: 0362 7bbd d022 9b3d bc3e 853d c721 b6bd
000003a0: ee8c 78bd c0c0 d7bc b0dc ee3d d07a 153e
000003b0: 0cb2 6e3d 4df8 b8bd 528a 163e 10dc b33d
000003c0: 2a9d 143e 745d bb3d 162f 0f3e 845b 5abd
000003d0: c4cb 243d 98e6 60bd d0ce 25be 164a 2bbe
000003e0: 90d7 19bd e4d0 25be 0ed2 2ebe fb65 23be
000003f0: d4e2 cd3d 940f 273e 403a febc 30d5 753d
0.18598783 0.09502698 0.08645943 -0.034709796 -0.04992493 -0.011015384 -0.11868064 -0.12613072
-0.012360499 0.16721243 -0.0320612 -0.020715624 -0.06972214 0.16430748 0.01070913 0.08104084
0.030797541 -0.017543975 -0.022619918 0.017736917 -0.080075935 -0.039732657 0.051555596 0.15622365
0.05775996 0.08469932 0.10163974 -0.005121423 0.08222664 0.07243374 0.035616007 -0.008043833
0.1817164 0.095111795 -0.08365241 -0.03816229 -0.02480258 0.15125039 -0.16247888 0.031320557
-0.094423085 -0.035643432 0.10358411 0.066508554 -0.093909025 0.155316 -0.14484683 -0.10803663
0.039074823 -0.13125545 0.15541038 -0.08257593 0.114928104 0.040711105 0.041175026 0.085462786
-0.08744265 0.11678821 0.06343974 -0.15464969 -0.14905865 0.06456461 0.082787424 0.040200118
0.15152171 -0.005389406 -0.06921167 0.08821778 -0.17184131 0.041364104 0.06615631 -0.045132995
-0.026027208 0.12977624 0.061091494 0.004433796 0.15923502 0.025927156 0.102051795 -0.096324354
-0.015167901 0.0709091 0.033939954 -0.13671176 0.033161633 0.10730749 -0.14737551 -0.057661057
-0.17987227 0.069161154 -0.041324645 0.06518637 -0.15226412 -0.07315572 0.16052558 -0.08855694
-0.09049738 0.0029121207 0.009402468 0.04833156 -0.12996721 -0.12417318 -0.037935883 -0.028670058
-0.009869784 -0.12266738 -0.0006594509 0.08155149 -0.100828215 0.041949347 -0.12869473 0.06672257
0.08046883 -0.052566834 -0.038229153 -0.016583622 -0.10564974 -0.12727562 -0.08022987 -0.031359807
0.15311074 -0.063859545 -0.1646655 -0.1197685 -0.14145659 -0.013931572 0.15736488 0.05254264
0.11385381 0.122826576 0.1577341 0.14072284 -0.17003967 0.1285705 -0.060074292 -0.15860523
-0.06836641 0.104634106 -0.06112005 -0.01937148 -0.03674331 -0.018381849 0.16200508 -0.06738156
-0.10349634 0.030626476 0.047718056 -0.008558482 -0.14878315 0.017066017 0.14855357 0.014263505
0.132494 0.13882904 0.11078436 0.051253065 -0.15788794 -0.15882653 0.0141201615 -0.120921545
0.013921658 0.13170657 0.006280548 -0.09625494 0.04201592 0.04052889 0.17352828 0.03433092
0.0832482 0.07701224 -0.07094091 0.17835397 -0.08459422 0.2021367 -0.1701759 0.08504414
-0.14551528 -0.0032681674 -0.047843777 -0.0895387 -0.12307136 -0.12459527 -0.11250286 0.02501783
0.14874026 -0.15778682 -0.028755225 0.18255213 -0.0051135793 0.049661204 0.21293631 -0.12722142
0.030364042 -0.13111913 -0.102941625 0.0939655 -0.14935315 0.16841598 0.16313158 0.11850609
0.16856468 -0.03952658 -0.01446031 -0.099618495 -0.046468623 0.0055542206 0.024100129 0.0919182
-0.11258864 0.1001533 -0.12745586 -0.07625742 0.07326101 0.072307944 0.14646754 -0.071930155
-0.15993896 0.09282101 0.12992159 0.06095441 0.09262241 0.08340955 0.09910445 0.14021255
-0.09514167 -0.12706175 -0.0062513943 0.15095171 -0.061372768 0.07574999 0.06506106 -0.08893161
-0.060681276 -0.026337028 0.116631866 0.1459763 0.058275267 -0.090317346 0.14701203 0.08782208
0.14513078 0.09148684 0.13982806 -0.053309932 0.04023339 -0.05490741 -0.16192174 -0.1672748
-0.037559092 -0.16192967 -0.17072317 -0.15956871 0.1005303 0.16314536 -0.031033635 0.060017765

_Decoder__Decoder.0.bias f4 [68]
00000000: 9609 333d 9107 1ebe 2f5b 45bd fd18 99bd
00000010: c7c1 7fbd 14e1 bd3d b631 113e bac5 13be
00000020: b113 a4be bda9 283e f808 ad3d 1058 efbd
00000030: a856 ebbd 61b6 17bb b3f9 013e 07be d9bd
00000040: 7a5d 1abe fb2d de3d 8b90 0dbe ae6f 12be
00000050: 0f7f 9cbd 1765 d9bd cbc8 3e3e b3b6 283e
00000060: c36b 3e3e c293 f3bd 62a9 9dbc 3deb 27be
00000070: 73c3 86bd 2390 323e 83fa 25be 2ad0 fabd
00000080: f329 6cbd 7982 323e a5dc 153e 51e2 fd3d
00000090: 4aeb aabd 561c 01be b011 363e a915 f7bd
000000a0: 83da edbd d03a 56bc dcb4 27be c22f a0bd
000000b0: 34b7 423d 98e7 cc3d 012c 83bd e7c5 213d
000000c0: 3bf2 193d b64a 263e f0ce 34be 12fe 313e
000000d0: 6517 0fbe 9990 713d 5ff4 113d f61c e53c
000000e0: 845b 223e 48c3 e03d 8a66 463e 97f1 da3c
000000f0: 3791 4abb b7bf 593e 43c0 193e 5faa 2abe
00000100: e820 fcbc af23 993d 89ba 743c 5fb7 94bc
0.043710314 -0.15432574 -0.048182663 -0.07475469 -0.06244066 0.09271446 0.1417912 -0.14430895
-0.32046273 0.16471 0.08448976 -0.116867185 -0.11491138 -0.0023149478 0.12692909 -0.10631948
-0.15074721 0.10848614 -0.1382467 -0.14300415 -0.07641422 -0.106149845 0.18631284 0.16475944
0.18595795 -0.11893417 -0.019245807 -0.1639833 -0.06580248 0.17437796 -0.16208844 -0.122467354
-0.057657193 0.17432584 0.1463495 0.12396682 -0.08345659 -0.12608466 0.17780185 -0.12064678
-0.116139434 -0.013075545 -0.16377586 -0.07821609 0.047537997 0.100051105 -0.064048775 0.039495375
0.037584525 0.16239437 -0.17657065 0.17382076 -0.13973768 0.05897579 0.03563344 0.027967911
0.15855223 0.10974747 0.19375053 0.026726527 -0.0030909309 0.2126454 0.15014748 -0.16666554
-0.03077741 0.07477509 0.014937052 -0.018153844

_Decoder__Decoder.2.weight f4 [137, 68]
00000000: c9d3 143c c991 d43d 2029 9d3b d127 d7bd
00000010: 0d86 87bb 18f8 38bd 0adb 163e 0e18 c83d
00000020: d9eb 89be b9cc a7bd 3819 793d 809a 293b
00000030: 3851 1d3d dcaa 8e3d 10bb 653c 2c8b aebd
00000040: 3fd1 b53b 182c 3c3c c28a 883d aec0 8c3d
00000050: 2772 6dbd df5c ab3d ed17 9fbc 8998 bdbc
00000060: 2570 d63d 14ad 7b3d 92ca 40bd 9c2a d33d
00000070: 64cd 3c3d 5ba3 b6bd 1c02 e63d b4a7 303d
00000080: 3133 b7bd 3acc 153e 1d9c 723d cf87 68bd
00000090: 56a3 9cbd 602a cf3d 7065 8ebd 2275 c9bb
000000a0: 97c9 fabb 0a46 4dbd 0498 9dbc 5c60 06bc
000000b0: 1cf4 afbd 81ef 273e b631 1c3e 9d66 f1bd
000000c0: 6727 803d bc7e 47bd 6295 96bd bfac 083d
000000d0: 2c87 87bd 6a46 dabc a75b 78bd 0e62 6bbb
000000e0: 2107 7c3d 0505 bd3c 6a66 423c a3d1 7fbd
000000f0: ef1b e43d 4568 1e3e e9cd a3bc 446a 83bc
00000100: da1c 81bd 331a 8d3d a2e4 883d da6f 7b3d
00000110: 176f 083d 5a00 d0bd 0c39 70bb 70c1 9dbb
00000120: 049b 9ebd 3ecf 7dbd 3b1d 303d f68d cb3d
00000130: aced cdbd 66d6 80bd f4b8 a13d 3413 283d
00000140: 9520 a4bd 9271 3fbd c0c3 4c3c cd31 f6bd
00000150: b9b1 f63c 1aa0 a53d 4947 02be a0c5 50bc
00000160: e42a bdbd 4ca8 9c3d 7dd2 c93d a49c 3f3d
00000170: 68b6 413d 8080 21bc 6741 8d3c fca5 643d
00000180: 8d3a 73bd e397 79bd e556 cabd ed56 e33d
00000190: 44ae d23d 47ef a2bd 2ff7 963d c472 873d
000001a0: aacd 2ebd 0cca 4f3d caa2 903d 6005 82bd
000001b0: 2d68 c73c 72cf d33d d07f 533d f4f9 83bd
000001c0: b067 983c 43b0 a13d 80dd 873b 0845 843d
000001d0: 2cd0 dcbd c0d6 233d 88e7 18bb 86fd 69bd
000001e0: 2c75 be3d d219 8ebd ebd7 683d d16c 903d
000001f0: 0b7e d5bd 1c62 93bd 8d91 7fbd 16ce 15bd
00000200: 58d9 773d 0403 bbbd 9f55 eebd e8b6 b93c
00000210: be33 52bd 4928 18bc 37d9 28bd aafc a33d
00000220: 6f5a 74bd a641 d23d 1c9d 6c3d 0051 ff3a
00000230: 6b5a 353d 18db 23bd 554d ff3d d8b2 bcbc
00000240: 9f14 a13e cace 573c e619 9d3d d643 8fbd
00000250: 3456 b33d edae 533d 8a44 523d 8818 e23c
00000260: 51de 203e a413 d1bd baf6 063e 0074 6e3c
00000270: d442 afbd 2778 c93d 9191 4dbe b191 003e
00000280: 1efd d63d 1012 233c d9bd ce3c b9b2 e9bd
00000290: d46b 153d f268 29bd 4554 d5bd 5b49 173e
000002a0: 42d5 bfbc e96f a03d dba5 9d3c 3c7f d63d
000002b0: 937d c33d e4f6 ec3d 20ce a9bb 4838 873d
000002c0: a02b b4bb b0ee c5bb 94a1 cbbc 5579 fc3c
000002d0: 1837 833d c9ab bcbd 1e31 83be a861 28bd
000002e0: 98d2 d13c 5ed1 f13d 543d bbbc 3a1c 5f3d
000002f0: afd1 95bc 286e d13c 6ccb 073e d097 8b3d
00000300: a99d c13c a632 dfbd f933 003e 6c55 93bc
00000310: c302 993d 4770 40bd adf3 b23c eca8 50bd
00000320: dc09 283d f36c c03c 3b9c 1a3d 427e 853d
00000330: 0bfa 81bd 9073 bbbd 9aaf df3d f07a 123c
00000340: aaf2 d1bd 3145 e43d 2308 94bd 00d6 27b9
00000350: 0ba4 aa3e 8f7d 9d3c 7df4 e93d 806d da3d
00000360: b0b8 803c e1ef dd3d 16b0 9a3d 2c7c debd
00000370: 3c8a 3f3e 0c17 2d3d c65b 9e3d 3fe6 8ebd
00000380: dd04 003e 4932 573c c5ca cbbe 0830 cc3d
00000390: 1e71 b93d 90d5 433d 821f db3d 9044 d43d
000003a0: 106d 48bc e07c 98bd d63e 483d 33ca 483e
000003b0: bfdd 6a3c 39ba 9fbd 11e4 72bd e92d 763d
000003c0: 7675 87bc e862 66bd 5e41 32bd 8fec 27bd
000003d0: ba61 033e 8cdb bfbd 9079 77bd 6339 403d
000003e0: 9605 7bbd eef3 94bc b7e3 36be a075 943d
000003f0: a648 39bd f81b 8b3d 85c0 1c3e 38de b33d
0.009083697 0.10379369 0.0047961622 -0.10505641 -0.004135853 -0.045158476 0.14731994 0.09770213
-0.2693775 -0.081933446 0.060815066 0.0025879443 0.038407534 0.069661826 0.01402165 -0.08522639
0.0055486257 0.011485122 0.06667091 0.06872688 -0.057970192 0.08367323 -0.019420588 -0.023144023
0.104706086 0.061444357 -0.047068186 0.103108615 0.046094313 -0.08917876 0.11230871 0.043128684
-0.08945311 0.14628688 0.059230912 -0.056770142 -0.07648341 0.10115504 -0.069529414 -0.0061479965
-0.007653426 -0.050115623 -0.019237526 -0.008201685 -0.08591482 0.16399957 0.15253338 -0.1178715
0.062575154 -0.048704848 -0.07352711 0.03336787 -0.06617579 -0.026644904 -0.06063428 -0.00359166
0.061530236 0.023073683 0.011865238 -0.062455785 0.111381404 0.15469463 -0.019995647 -0.016041882
-0.06304331 0.06889763 0.06684233 0.061385967 0.03330907 -0.10156317 -0.0036655096 -0.0048143193
-0.07744411 -0.06196522 0.042996626 0.09939186 -0.10055098 -0.06290893 0.07896605 0.04103394
-0.08014027 -0.04673917 0.012497842 -0.120212175 0.030114042 0.080871776 -0.12722506 -0.01274243
-0.09236696 0.076492876 0.098546006 0.046780244 0.047293097 -0.009857297 0.0172431 0.055822358
-0.05938201 -0.060935866 -0.09879855 0.11100564 0.10287145 -0.07955795 0.07371365 0.06613687
-0.042676605 0.050729796 0.070622995 -0.063486814 0.024341667 0.103423014 0.051635563 -0.06444159
0.01860413 0.078949474 0.004146278 0.06458479 -0.10781893 0.039999723 -0.0023331363 -0.057126544
0.092996925 -0.069385186 0.05684654 0.07052005 -0.104244314 -0.07196447 -0.062394667 -0.036573492
0.06051001 -0.091314346 -0.11637425 0.022670224 -0.051318876 -0.0092869485 -0.041222777 0.08007176
-0.059656557 0.10266428 0.05776702 0.0019479096 0.044275682 -0.040003866 0.12465922 -0.023034498
0.31461045 0.013171861 0.07670955 -0.069953606 0.08756676 0.051680494 0.051334895 0.027599588
0.15709807 -0.10208824 0.13180056 0.014554024 -0.08557668 0.0983737 -0.2007506 0.12555577
0.10497497 0.009953037 0.02523701 -0.11411042 0.036479786 -0.04135985 -0.10416464 0.14774077
-0.023417119 0.07833845 0.019244125 0.10473487 0.09545436 0.11570528 -0.0051820427 0.06602532
-0.0054983646 -0.0060404167 -0.02485732 0.030819574 0.06406993 -0.09212453 -0.2562341 -0.041108757
0.025613114 0.11807512 -0.022856392 0.05447028 -0.018288461 0.025565222 0.13261193 0.06816065
0.023634749 -0.10898332 0.12519826 -0.017985068 0.0747123 -0.046982076 0.02184471 -0.050942346
0.041025028 0.023489451 0.03774665 0.065182224 -0.0634652 -0.09152901 0.10922165 0.008940443
-0.102513626 0.1114601 -0.072281145 -0.00016006082 0.3332828 0.01922491 0.114235856 0.10665417
0.015713066 0.10836769 0.07553117 -0.10863528 0.18705076 0.042258307 0.07732348 -0.0697751
0.12501855 0.0131345475 -0.39803138 0.09970099 0.090547785 0.04781109 0.10699369 0.1036464
-0.012233034 -0.07445693 0.04888805 0.19608383 0.014335095 -0.07799191 -0.059299532 0.060102377
-0.016535502 -0.056246668 -0.04351937 -0.040997084 0.12830248 -0.09368047 -0.060418665 0.04692973
-0.061284624 -0.018182721 -0.17860304 0.07248998 -0.0452353 0.06792444 0.15307815 0.08782619

_Decoder__Decoder.2.bias f4 [137]
00000000: 159b d43d 31af 4ebd 4073 7cbd 5c34 dcbd
00000010: 9b64 0d3e 8efb 24bc 08a2 e63c 57de fc3d
00000020: 26f3 ddbc 6001 203d 864d 433d 76f3 11bd
00000030: 8f7b ed3d f3c0 fc3c 4620 ed3d 0b0e ecbd
00000040: dd44 213c 8241 b7ba f7ea 3e3d e7c9 6fbd
00000050: 2cfc b4bd adc7 b03d 90b1 b9bd 9641 7fbd
00000060: 42cb 0f3e e3f5 473d c477 2a3d c373 c4bd
00000070: e045 88bc 5c1b fd3d a5b1 073e da6d 103e
00000080: 6a3c c63c f9df 023d 65d1 1e3e dd4e 1d3e
00000090: b3da edbd 23f0 86bd b71c 373d 7c75 9a3d
000000a0: d481 7a3d 3ecd 5cbd c366 cbbd 05b6 ad3d
000000b0: 8793 80bd c07c 593c 2415 db3a beb6 4bbe
000000c0: abc4 eabd 018c 5bbc 4e52 213d 0cd1 cdbd
000000d0: 1c93 d03d eb57 743d fe40 26bb d0d5 483c
000000e0: 1c8d 993d 2aa2 80bd 0056 bdb9 ab4a a2bb
000000f0: 036b 933d c891 423d abfd 16be 1d25 4c3c
00000100: 307a 273d 820a 663d a7d4 993d 4cdc be3d
00000110: a969 1e3e 163a cfbd ba31 a63d 96ca b33d
00000120: a890 4c3d 14be 8ebd 2d78 d13d 373e abbd
00000130: e8c8 d9bc d0ee 43bd 97f5 49bd c41c dd3d
00000140: 9607 f7bd a340 bc3c 0881 e73d f268 b3bd
00000150: 608e 82bb b78f 9f3d ccea b8bc 03b5 2dbd
00000160: 180f c73d d81e 38be 0516 e4bd 2746 01bc
00000170: c9e6 4e3b 2386 b13d 4927 b63a 8906 303d
00000180: f304 673d 0044 3c3c 5364 b7bd 3110 15be
00000190: 52a0 b03d cf13 d73d 690a c4bd 4520 c83d
000001a0: 2d64 8f3c ffb5 3a3d 000c fbb8 2c34 153d
000001b0: a291 a4be 52ac c4bd 62a8 68be be9c aabd
000001c0: b18c a23c 5aad 113e 976e cfbc 7909 f5bd
000001d0: 2f6c 103e 37be f5bd 026f 43bd 2048 95bc
000001e0: a084 c13c f5a8 003d b805 13bd 0c8c 413d
000001f0: 4148 003e 11cc c8bd 7e13 3a3d d2a8 1e3e
00000200: 56a1 8abd 74b0 4d3d a9bd 073e 1e55 afbd
00000210: cfff d7bd 6a97 c23d f3c8 f53d 83da 953c
00000220: e803 84bc
0.10381142 -0.050460044 -0.06163335 -0.10752174 0.13807909 -0.010069741 0.028153434 0.123470955
-0.027093481 0.03906381 0.047681354 -0.035632573 0.115958326 0.030853724 0.11578421 -0.11526116
0.009843078 -0.0013981315 0.0466108 -0.05854216 -0.088371605 0.08631835 -0.090670705 -0.062318407
0.1404238 0.04881848 0.041618124 -0.09592392 -0.016634881 0.12358734 0.1325136 0.14104405
0.02419873 0.03195188 0.15509565 0.15362115 -0.11613979 -0.06588771 0.04470512 0.075419396
0.06115897 -0.05390667 -0.099317096 0.08481983 -0.062781386 0.013274372 0.0016714674 -0.1989393
-0.11463293 -0.013400079 0.039385132 -0.10049638 0.10184309 0.059654158 -0.0025368328 0.012258008
0.074976176 -0.0628093 -0.00036112964 -0.004952749 0.07198145 0.04750231 -0.14745204 0.01246002
0.04088801 0.056162365 0.07511263 0.09319362 0.15469994 -0.10118501 0.08114953 0.087788746
0.049942642 -0.06969848 0.10228 -0.08361476 -0.026585057 -0.04783517 -0.04930648 0.10796502
-0.12061994 0.02298004 0.11303908 -0.08760251 -0.0039842576 0.07791083 -0.022572897 -0.042408954
0.09719676 -0.17980516 -0.111370124 -0.007890261 0.0031570664 0.08668163 0.0013897206 0.042974982
0.056401204 0.011490822 -0.08954682 -0.14556958 0.08624329 0.10501825 -0.09572298 0.0977178
0.017503822 0.04558372 -0.00011970848 0.036426708 -0.3214236 -0.0960318 -0.22720483 -0.083306774
0.019842478 0.14226285 -0.025321288 -0.119646974 0.14103769 -0.11999171 -0.047713287 -0.018222868
0.02362281 0.03141113 -0.035894126 0.0472527 0.12527563 -0.098045476 0.045428745 0.15494087
-0.06769054 0.050217107 0.13255943 -0.08561157 -0.105468385 0.09501536 0.12001219 0.018292671
-0.016115144

_Decoder__Decoder.4.weight f4 [275, 137]
00000000: 2191 d2bd bbb8 883d c7de 103c 380f 363d
00000010: ba43 1abd 7533 48bd ee5a 9c3c d4e7 04bb
00000020: c526 3a3d 1ed0 0c3d 6b91 afbd 7fca 833d
00000030: db98 883d 44bc 8bbd 85cf 1f3d bc30 8ebc
00000040: aa71 343d b3ca 173d a983 3a3b c400 23bd
00000050: aafc c8bc d883 c13c bd9e 0b3d b420 f13c
00000060: 43d8 b63b 53f9 3fbd 1cde 6fbd bf2f 17bd
00000070: bac2 0b3d 5c2b 853c 2cfc 683d 1119 e23c
00000080: fd7b b0bd c40e 26bc 0094 1dbd d947 083d
00000090: 4ef8 853d c4f6 64bd 2202 623d 0e4d 1ebd
000000a0: 8e5b a7bc 5434 563d f850 ac3c 234b bdbc
000000b0: a32e a93d 2a89 8b3d a06a c53c 99b7 da3d
000000c0: 6f05 86bd 16c9 043d 0ef0 97bd 401b 353d
000000d0: e595 d3bd 6bca 0cbc 92dc 17bd 1041 8cbb
000000e0: 8723 38bd 793c 883d ce98 42bd fc9b 653d
000000f0: e464 66bd 4308 c8bd 32d6 453d d6dd 28bd
00000100: 6754 cebc 01cc b23d 5f94 bcbd 5fd8 96bd
00000110: 4484 01bd ff4c a33d d39e 9ebd 5901 d1bc
00000120: 8f9f 25bd 400b 113c bb37 14bd a22c a23d
00000130: 5749 a4bd dfd0 78bc dd52 88bd e7f3 4dbd
00000140: b01c 87bc 297a d5bb cc86 ed3c b0bb 603d
00000150: c631 843d b0d5 513c 8ef6 44bd ccb3 9fbd
00000160: 3c58 8dbd 4bd2 873d 7428 7b3d eee9 dd3d
00000170: 5f23 0dbd 35ba 903d 1054 bdbb 5dd0 f4bb
00000180: a875 37bd d720 50bd c61b 823d d83c fd3b
00000190: 286b a8bd 1708 23bd 626f ab3d 7d00 a83c
000001a0: c111 73bd eb2b bbbd ec28 533d 0648 12bd
000001b0: 7032 863d de44 dd3d 87e0 f93d 244b 4a3d
000001c0: 4fc4 743c bc86 5b3d e6ce 0b3d 5c6e c2bc
000001d0: 55bc 75bc db2f 31bd 904d 75bd 707a a73c
000001e0: 3576 64bc a127 933d 0239 de3d dd43 993d
000001f0: 0d3a 66bd a675 aa3d 1394 913d c80b 8abd
00000200: 2cf8 fd3c b8b7 6ebc d855 633d 2461 6d3d
00000210: 8d9f 6abd a442 8fbc d064 abbd c0e1 b0bd
00000220: e6c5 c73c 74b8 62bd 8cf2 133d 14df e73c
00000230: a51f 8bbd 369d 02be 0fdf f93c b3e4 eabd
00000240: 5e25 18bc a078 663d b8eb bd3c 8e6b 37bd
00000250: 8a54 163d 4e4a e1bd 9ec9 d53c 0664 9cbd
00000260: b549 a0bc 5fcf 253d 0b35 3fbd e09b 7abd
00000270: ba54 a0bc 5812 2c3d 1077 cfbd 75b0 913c
00000280: bc32 74bd e021 913c cf17 a4bd e18b 43bd
00000290: d067 7f3d 1c1d 6d3d 51a7 cabd a5fb acbd
000002a0: 96e8 d2bd e0d8 243d e673 a2bd 408f fe3c
000002b0: c045 933c ee0e 043d 0133 13bd 4529 c9bc
000002c0: ad82 42bd 32f3 74bd 88dd ac3d 5cc6 f03c
000002d0: 3777 6b3c 0232 63bc 90a3 9bbc 6f8b abbd
000002e0: c63c aabc 957b 233c c37b 4fbd f7de b7bd
000002f0: e22b 46bd f931 5bbd 38eb 9abd be77 fa3c
00000300: 3cad bf3c a22c 2ebd 9fa4 5d3d d018 ac3c
00000310: be79 8bbd df83 f13c 0468 aa3c 06af 993c
00000320: cdb4 1ebd ddfe 2a3b 6833 09bd e3ce 37bc
00000330: 3fea f1bd cc8d cabd dcb8 88bd d24f 38bd
00000340: e657 39bd d6c4 9d3d 184c 9a3c 7c20 f03c
00000350: 0050 413d 1452 88bd 7639 ac3c 93c7 35bd
00000360: 178f c8bc 30eb 713c abc1 d0bb 386e 4dbd
00000370: 60fe 6d3d f625 d6bd f8ab b1bd b865 85bd
00000380: 144c 8c3d f6b2 b3bd 156d 90bd 002b 573c
00000390: 4332 65bc 360a 7cbd 63bc 31bc 3e1f 523c
000003a0: 213a e93c 9a43 b7bb 48db 55bc 331d b0bd
000003b0: 4d35 673d 7f6f 3dbd 68f2 f3bd 7887 e0bc
000003c0: 0b63 d03b be43 263c 1c00 173c 3019 b3bb
000003d0: 6407 54bd 91bb 083d d8b1 64bd 9f4b 17bd
000003e0: a213 913d 659e 533d 7633 95bb 0847 0abc
000003f0: 7685 8dbd cc9e 22bd d0c4 5f3d ab50 9abd
-0.102815874 0.066758595 0.008842177 0.044448107 -0.037662245 -0.0488772 0.019086327 -0.0020279782
0.04544713 0.034378164 -0.08572658 0.064351074 0.0666978 -0.06823018 0.039016265 -0.017357223
0.04405371 0.037058543 0.0028459823 -0.039795652 -0.024534542 0.023622438 0.03408693 0.02943454
0.0055799796 -0.046868633 -0.05856143 -0.03691077 0.034121253 0.016256027 0.056881115 0.027599843
-0.08617399 -0.010135356 -0.038471222 0.033271644 0.06541501 -0.055899397 0.055177815 -0.038647704
-0.020429399 0.052295998 0.021034703 -0.023107117 0.082608484 0.06813271 0.024098694 0.1067955
-0.06544005 0.032418333 -0.07418834 0.04421544 -0.103313245 -0.008593182 -0.037075587 -0.004280217
-0.044955757 0.06652159 -0.047509007 0.05605696 -0.05624856 -0.09767201 0.048299976 -0.041227184
-0.02518673 0.08730317 -0.09207987 -0.07365488 -0.03162028 0.0797367 -0.07745137 -0.025513338
-0.04043537 0.00885278 -0.03618596 0.07918669 -0.08021801 -0.0151865175 -0.0665643 -0.05028143
-0.016493171 -0.0065148068 0.02899494 0.054866493 0.06454806 0.012807295 -0.048086695 -0.077979654
-0.06901595 0.06631907 0.061317876 0.10835634 -0.03445756 0.07066766 -0.0057778433 -0.007471128
-0.04478994 -0.05081257 0.063529536 0.0077282004 -0.082235634 -0.039802637 0.08370854 0.020508045
-0.059343103 -0.09139236 0.051552698 -0.03571322 0.06552589 0.10804151 0.12201028 0.049388066
0.014939382 0.05359529 0.03413286 -0.023734264 -0.014998515 -0.04325853 -0.059888422 0.020444125
-0.013944198 0.07185293 0.10850717 0.07483647 -0.056207705 0.08323221 0.07108321 -0.06740528
0.031002127 -0.014570169 0.05550179 0.05795397 -0.057281066 -0.017487831 -0.08368838 -0.086368084
0.024386358 -0.05535169 0.036119983 0.028304614 -0.06793145 -0.12755284 0.03050187 -0.11469402
-0.009286253 0.05626738 0.023183689 -0.044780307 0.036701716 -0.110005006 0.026097115 -0.076362655
-0.019566396 0.040480968 -0.046681445 -0.06118381 -0.01957165 0.04200968 -0.10130131 0.017784337
-0.059618697 0.017716348 -0.08012354 -0.04774082 0.062354863 0.05788909 -0.09895194 -0.08446435
-0.102982685 0.04024589 -0.07932262 0.031074166 0.017977595 0.0322408 -0.035937313 -0.024555812
-0.047487903 -0.05980224 0.08440691 0.02939146 0.014371685 -0.013866903 -0.018998891 -0.08376204
-0.020780932 0.009978195 -0.050655138 -0.08978074 -0.048381694 -0.053514455 -0.07564396 0.030574676
0.023398034 -0.042523034 0.054112073 0.021007925 -0.0681033 0.029481826 0.020801552 0.018760215
-0.038746644 0.0026091852 -0.03349629 -0.011218759 -0.11812257 -0.09890327 -0.06675884 -0.044997998
-0.045249842 0.07703559 0.018835112 0.029312365 0.047195435 -0.0665628 0.021023493 -0.044379782
-0.024482293 0.014765546 -0.0063707433 -0.05015394 0.05810392 -0.10456459 -0.086753786 -0.06513542
0.06850448 -0.087743685 -0.07052056 0.013132811 -0.013989034 -0.061533175 -0.010848138 0.0128248315
0.0284701 -0.0055927755 -0.013052769 -0.08599319 0.056447316 -0.04624891 -0.1191147 -0.027408347
0.006359463 0.010147987 0.009216335 -0.005465649 -0.05176486 0.033382002 -0.055833668 -0.036937352
0.07083823 0.05166473 -0.0045532538 -0.008439787 -0.06910221 -0.03970222 0.054631054 -0.075349174
